DM_informer/ddpm_unet_model.pth (torch, 103119 bytes, 7 tensors)

encoder.0.weight f4 [64, 1, 3]
00000000: 6661 d83b 5c0b f4be 7a1c 133d 2b10 b5be
00000010: 5579 8b3e 6920 63bd 7e51 b83e 8ffa 2cbd
00000020: 8883 95bc 62c7 b7bd c48b 1dbd b1ba 4e3f
00000030: 9071 2fbd 41c1 debe 7500 2d3e a685 5dbe
00000040: f59f 99be e5e8 23be d93b f8bc 421b da3e
00000050: d0c9 58bc 62bb 87be f3fe 683e 15b0 67be
00000060: 107c ecbe f3d9 2fbe cabb 0f3f 4acc af3e
00000070: 3664 9bbe e07b 13bf d8ed 713e eb9d d43d
00000080: 1f67 fa3e cf34 33bb 8bba 1c3e a4eb 20bf
00000090: d44b 99be b9e5 78be e549 fb3e 080d 1b3f
000000a0: d540 ad3e 2a35 6dbe ddd3 bfbe 4870 b4bd
000000b0: 36ed e6bd 3ddc 663e 6243 873d b9f1 1abe
000000c0: d8bf 85be d024 e73b 39f8 f0be 0258 c43e
000000d0: 01a2 32be 0a7c 0cbf 46ef 8e3e 7ea0 0c3f
000000e0: b508 eebe 76d3 b73e ad61 08bf 3a34 eebe
000000f0: ee44 4ebe 8c8f 423f baba 0bbf 9e7a a33e
00000100: 0f41 adbe 3e1c 00bf f767 d63e 2cfd 93be
00000110: 619b febe 8975 ddbd 71a9 97be 9278 d2bd
00000120: c539 a43e e623 7bbe 7400 81be d84d 8d3e
00000130: 177c 833e c70c 333e 29c9 d6be 0de1 1bbe
00000140: 835a 45be 0575 c83e 4bcd fe3e 4e67 8ebc
00000150: d8d7 debe 5445 dcbe f3d8 0d3f f887 f1be
00000160: 6198 d3be f643 96bd 02f8 0abf fc28 4cbe
00000170: 04db cbbe 4efd 00bf 926b 20bd 9ce9 07be
00000180: cfdf 7f3e c7d3 9fbe b129 713e 7aeb fabe
00000190: 2920 ea3e 6558 cbbe 975c 8f3e 13a0 313d
000001a0: bcda 58be aaf4 0a3f 4dda b6be 4914 003f
000001b0: 93ee f6be 4cec da3e 7831 c0be 58ba b73e
000001c0: dce4 e13e 4529 8b3e 46e7 0c3f 23b0 69be
000001d0: 72d9 70be 6409 a23d 5804 7fbe 27e1 03be
000001e0: 02aa 25be 8f89 01be 0f9c 05be 7ddd 013d
000001f0: d5fa 153f 6725 9c3e ec77 3f3d bd2f 02bf
00000200: 5288 f03e 95e7 d4be 0eb9 aabc 6a41 983d
00000210: f0f6 9dbb 2a73 d2bd a36b 4d3e 1852 ce3e
00000220: 1377 64bf 7158 193f 703e edbb 0a62 453c
00000230: 47fd e83e 2f12 d43e 6f15 9fbe 2815 293d
00000240: 17db 1dbd 01e1 e2be edd3 3fbe 2fe2 f83e
00000250: a7e3 06bf f8d6 f0be 93f6 16bf e20c 3fbe
00000260: d80b 453f 9ecb 0dbf b3de 103e 9f93 de3e
00000270: c417 e1be fa05 223f 7559 a63e aeca f53d
00000280: 462d a2be 3861 c13e 0afa 313f 0474 a9b9
00000290: 5241 c0be 45a7 3b3f 5e56 10bd 86c1 62bc
000002a0: da92 04bf 8699 9dbc 0709 3fbd 3ddd d5be
000002b0: ec26 f8be fb54 8d3e 8917 babe 6ce6 90be
000002c0: 4cb5 293e 8bae 1b3f 8a52 7ebe f581 e4be
000002d0: 4553 fabe 521e f83e 024e 09bf 817b 0c3f
000002e0: 5047 2c3e b997 38bf c436 c83e 3c48 ce3e
000002f0: 0bcf 0ebe 1df4 c2be fb62 16bf edc4 9dbe
0.0066034077 -0.47664917 0.03591583 -0.35363898 0.27241006 -0.05545083 0.35999674 -0.04223114
-0.018251196 -0.08973576 -0.03846337 0.8075362 -0.04283291 -0.43506816 0.16894706 -0.21633014
-0.3000485 -0.16006811 -0.030301975 0.4259892 -0.01323171 -0.2651015 0.22753505 -0.22625764
-0.46188402 -0.17172985 0.5614592 0.34335548 -0.30349892 -0.57610893 0.23625886 0.10381683
0.489068 -0.0027344709 0.15305535 -0.6285956 -0.29940665 -0.24306382 0.49079815 0.6056676
0.33838525 -0.23164812 -0.37466326 -0.088104784 -0.11275713 0.22544952 0.06604649 -0.15131272
-0.26122928 0.007053949 -0.4706438 0.38348395 -0.17444612 -0.5487677 0.27916926 0.5493239
-0.46491018 0.3590352 -0.5327404 -0.4652422 -0.20143482 0.76000285 -0.545818 0.31929487
-0.33838698 -0.50043094 0.41876194 -0.28904092 -0.4972792 -0.10813434 -0.2962146 -0.10276903
0.32075325 -0.24525413 -0.25195658 0.27598453 0.2568061 0.17485343 -0.41950348 -0.15222569
-0.19272809 0.3915178 0.49766 -0.017383244 -0.4352405 -0.43021643 0.55409163 -0.47174048
-0.41327193 -0.07337181 -0.5428468 -0.1993751 -0.39815533 -0.5038651 -0.039165087 -0.13272709
0.2498772 -0.3121626 0.2355106 -0.4900778 0.4572766 -0.39715877 0.28000328 0.04336555
-0.2117719 0.5427958 -0.35713425 0.5003095 -0.48228893 0.42758405 -0.37537742 0.35884356
0.44119918 0.27179924 0.55040395 -0.22821097 -0.23520449 0.07911947 -0.24904001 -0.12878858
-0.16178134 -0.1265013 -0.13047813 0.03170537 0.58585864 0.30497286 0.046745226 -0.5085409
0.46979004 -0.41582933 -0.020840194 0.07434352 -0.004820697 -0.10275872 0.20060591 0.40297008
-0.8924419 0.59900576 -0.007240109 0.0120473 0.45505735 0.41420123 -0.3107104 0.04127994
-0.03853902 -0.4431229 -0.18733187 0.48610064 -0.5269112 -0.47039008 -0.5896999 -0.18657258
0.769712 -0.5538882 0.14147453 0.43472 -0.43963444 0.6329037 0.32490125 0.12001549
-0.31675166 0.37769485 0.69522154 -0.0003232063 -0.37549835 0.7330211 -0.035238616 -0.013840085
-0.5178658 -0.019238245 -0.04663947 -0.41770354 -0.48467195 0.27603897 -0.3634608 -0.28300798
0.16573066 0.60813206 -0.24836174 -0.446304 -0.48891655 0.48460633 -0.53634655 0.5487595
0.16824079 -0.7210651 0.39104283 0.40289485 -0.13946168 -0.3807687 -0.5874478 -0.30814305

encoder.0.bias f4 [64]
00000000: 99ce d5be a6d3 fc3d 3735 e73e cec3 8fbe
00000010: 9a97 fd3e cd14 1cbd 9ed5 60be 9dcc 033f
00000020: e29c 913e 2c8f 06bf 4c98 acbe 0f05 f1be
00000030: eb8c d33e e862 39be 5ea2 10bf 8ea5 be3e
00000040: cc90 ab3c ff66 36be 046f e6be d0c0 043f
00000050: 6646 173d c031 0bbe 3874 e53e 5ad5 fcbe
00000060: 6ee2 8fbd a8f8 303d ddc7 f6be 5270 6f3e
00000070: 62d4 41be 339b 20be c97d 77be e459 4b3e
00000080: bc13 e63e 3ff3 b73e 5caf 253e 1051 acbe
00000090: fe6a 93be 27e1 a43e 4eca bd3d adbc 96be
000000a0: fb63 fbbd ed6b 1d3e deff d23c c10b b7be
000000b0: 7aa8 da3e 35dc d0be 5e60 ea3e a5e2 b5bd
000000c0: 601d dc3c 797f fcbe 6ee6 4e3c feb1 1f3d
000000d0: 57f7 103f 7e0e 2d3d 3b36 18be 4ffc f0be
000000e0: 294f babe e0fc 1d3d 1e17 f1be bf9e b63e
000000f0: 071a 20bd 4ae8 753c 569e fe3e 5f11 47bf
-0.41759184 0.12345056 0.45157787 -0.28079075 0.49529725 -0.038105775 -0.21956488 0.5148409
0.28440005 -0.5256221 -0.33709943 -0.47074172 0.4131845 -0.18104136 -0.5649775 0.37235683
0.020943068 -0.17812727 -0.45006573 0.5185671 0.03693237 -0.13593197 0.4481523 -0.49381524
-0.0702561 0.043205887 -0.4819936 0.2338269 -0.18928674 -0.15684204 -0.24169077 0.1985851
0.4493693 0.3592777 0.16180176 -0.33655596 -0.28792566 0.32203028 0.09267102 -0.29440823
-0.12274929 0.15373202 0.025756773 -0.35751155 0.42706662 -0.40793005 0.45776647 -0.0888112
0.026869476 -0.49316004 0.012628181 0.038988106 0.5662741 0.04225015 -0.14864437 -0.47067496
-0.3638852 0.03857124 -0.4708795 0.3566799 -0.03908732 0.015008995 0.49730176 -0.7776088

encoder.2.weight f4 [64, 64, 3]
00000000: 0cec 64bd 887f 7dbd a346 0f3d 213f 22bd
00000010: 5c1a 0cbd ae90 c93a 034d bbbb 369a e8bc
00000020: 5a1f c53c ac94 06bd 1c55 5dbd 9c98 8bbd
00000030: 1d0a 263d b98a f8bc 29c6 7fbc 3c6a 86bd
00000040: 40eb c6bc 4314 333d c2e2 4fbd 3107 dabb
00000050: cf63 e23c 91f2 6cbd e9e5 e23b 36c7 6bbd
00000060: fc9d 56bc 5be8 863d df23 5dbd 2088 e1bc
00000070: 83d3 73bd 00ba 5abd 6310 843d e6a8 a1bb
00000080: c180 043d 7baf 5bbd 6dca 5bbd aba1 f3bc
00000090: f462 74bd 87b5 cf3b 73bb 0cbc 2ae1 923c
000000a0: 2ca6 503c 4f2a 0bbd a952 61bd f127 94bb
000000b0: ee3e 3cbd 92b0 90bd 907a 993c a47c e9bc
000000c0: 9799 fabc dd0a 65bd 03eb 913d 0891 54bd
000000d0: 1927 fd3c 2e0a 78bd 1825 82bd 211e 24bd
000000e0: 4735 84bd c427 0c3d a420 8cbd 4d71 1cbd
000000f0: 560c 353d 84ab 60bd 1441 c8bc ae98 63bd
00000100: 31bc 50bd f1ee 89bd 5f16 8bbd 8742 6ebc
00000110: a21d ec3c eb36 053d 2736 3c3c af6a 8b3d
00000120: f82e babc f48e 86bb a2c9 5bbc a332 86bd
00000130: b90c 503d b799 4f3d 1ea0 0fbb 0cbe 8ebd
00000140: 7ab3 1bbd 8bf5 a2bc ed47 d63b 635a debc
00000150: 7407 9c3c 64c4 00bb cad6 c4bc 2781 923d
00000160: cd5a 8e3d c10b 633d f556 6abd 3106 7fbc
00000170: 1222 d4bc 94cf 84bb d8d0 143d aa0a 33bd
00000180: 3ae0 943c ebe3 27bd 045c 0b3d c869 913d
00000190: 5810 14bd 57a8 b93a 0347 7c3d 3881 4c3c
000001a0: 9dbd 3cbc 6404 55bc 25a7 1cbd 973b adbc
000001b0: b959 92bd 2d5d ee3c 9ec4 8fbd 05dc 76bd
000001c0: f7f2 8b3b 1e93 0e3d 2b49 49bd 12a4 293d
000001d0: 98c4 3abd b365 123d 85b9 00bd f763 c2bc
000001e0: 4188 833d cd91 103d eb15 2dbd bfd9 5ebd
000001f0: bd27 f3bc e514 423d 0ae8 7a3d 029a 7a3c
00000200: 8b83 2b3d 5361 52bd b95b a9bc b2a0 913c
00000210: c73d 0bbd aac1 62bd 3bbe f53c 7111 f4bc
00000220: ba66 903c b387 d2bc fc5a 5e3b 99cd 6fbd
00000230: e0bb e6bc 1988 3abc e7b0 09bd 1a1e 08bd
00000240: 4411 213d 07c5 b83c 329b aabc 4c02 6ebd
00000250: d333 4a3d f2c2 973c 14ba 91bd cbc3 0abd
00000260: 3e48 57bd 9d45 6bbd a999 283d c94b 603d
00000270: bdf2 983a 1b25 64bd e00b 83bd 413f 16bd
00000280: 378b 863d 8216 d93c bad3 8c3d 7c44 f9bc
00000290: 3f78 05bd 1c3f dfbb 250c 043b 0faa 8c3d
000002a0: 5fd4 6d3d 1108 4b3d 965e 2f3d ac0e d2bc
000002b0: 00ad a73c 4576 5bbd 0be2 8cbc ad98 9cbc
000002c0: e8b5 d23c cd53 5c3c 3626 84bd e126 60bc
000002d0: 5697 16bc b18c ca3c abe7 85bb b0c2 013d
000002e0: 658f 123b 44fd ec3c 58d2 64bd 79ce 20bd
000002f0: 875a 253d 80ce ef3c 6213 b9ba 05b6 81bd
00000300: 4b92 183d 4e6a 45bd d3cb 9ebd 175a 08bd
00000310: b55a 413d a365 c83c f6c6 8bbd c789 2f3d
00000320: afad a7bc 92e8 673e 1c3b 27bd 2d13 84bc
00000330: 76db 2cbd 86f8 713d 6c0e 5e3d 9b4d 843d
00000340: 1c6b a03d 3596 0abd 7783 d93d 9d93 dd3e
00000350: 14dc 8bbd 20ee 603d 09ee 553d b0be 583c
00000360: b335 10bd 7dfb b0ba ce8f da3c bf75 70bc
00000370: 2bf9 1ebd 1da1 31bd f425 723d 1f22 f93c
00000380: e8b3 803d 52ae ffbd 0041 9cbd cc9d 1dbd
00000390: eedc 753d e45d 693d f3d9 9dbc 14c0 283d
000003a0: cf58 e13a 3a76 943d b390 26be d28f fcbd
000003b0: dc60 14bf b7a5 033c c84d 9a3d c911 c33b
000003c0: 1414 923d 6fdf 4d3d 5c57 42bd ab7b 2cbd
000003d0: 2f6f 63bd 9f31 13bd 3b6a 16bc afdf b73c
000003e0: 6dd0 e83b e2c1 9b3b c5a2 4fbd 81d5 233c
000003f0: 3c04 26bd 079f a83d 78da 96bd d7d8 68bc
-0.055889174 -0.0618892 0.034979474 -0.039610986 -0.034204826 0.0015378201 -0.0057159676 -0.028393846
0.024062801 -0.03285663 -0.054036245 -0.06816217 0.04053699 -0.030339586 -0.01561121 -0.06563231
-0.024282098 0.043720495 -0.050753362 -0.0066536893 0.027635483 -0.057848517 0.00692438 -0.05756303
-0.01309919 0.06587287 -0.053989287 -0.02753073 -0.059527885 -0.05340004 0.06448438 -0.0049334643
0.03234935 -0.053634148 -0.053659845 -0.029740175 -0.05966468 0.0063387784 -0.008589613 0.017929632
0.012734931 -0.033975895 -0.05501047 -0.004521363 -0.045958452 -0.07064928 0.0187352 -0.028501816
-0.030590815 -0.055918563 0.07124903 -0.051896125 0.030902432 -0.060556583 -0.06354731 -0.040067796
-0.06455474 0.03421761 -0.06842163 -0.03819399 0.044201218 -0.05485107 -0.024445094 -0.05556553
-0.050960723 -0.067350276 -0.06791376 -0.014542229 0.028822724 0.032523077 0.01148752 0.06807458
-0.022727475 -0.004106397 -0.013414772 -0.06552627 0.050793383 0.050683703 -0.0021915506 -0.06969842
-0.03801296 -0.019892475 0.006539336 -0.02714271 0.019046523 -0.0019648308 -0.0240282 0.0715354
0.069509126 0.05543113 -0.057211835 -0.015565441 -0.025895152 -0.0040530656 0.03633198 -0.043711342
0.018173326 -0.040988844 0.0340233 0.07100254 -0.0361484 0.0014164549 0.06159116 0.01248198
-0.011519817 -0.013001535 -0.03824534 -0.021146579 -0.071460195 0.029097164 -0.070199236 -0.06026842
0.004270907 0.03480827 -0.049142044 0.041416235 -0.045597643 0.03574152 -0.031426925 -0.023729308
0.06422473 0.035295296 -0.04225723 -0.054406878 -0.029682035 0.047383208 0.061256446 0.015295507
0.041873496 -0.051362347 -0.02067362 0.01777682 -0.033994462 -0.055360474 0.029997936 -0.029793473
0.017627109 -0.025699472 0.0033928743 -0.058545683 -0.028165758 -0.011384987 -0.033615973 -0.033231832
0.039323106 0.022554887 -0.020825956 -0.05810766 0.04936583 0.018525574 -0.0711557 -0.03387813
-0.05255913 -0.057439435 0.041162167 0.054759774 0.0011669021 -0.05569945 -0.06398749 -0.036681417
0.06569522 0.02649999 0.06876321 -0.030428164 -0.03258538 -0.006812943 0.002014884 0.068683736
0.05806386 0.04956824 0.042814814 -0.025641762 0.020468235 -0.053579587 -0.01719763 -0.01911577
0.025721505 0.013447714 -0.06452601 -0.013681144 -0.009191355 0.02472529 -0.004086455 0.03167981
0.0022363302 0.02892936 -0.055864662 -0.039259408 0.040369537 0.029273272 -0.0014120156 -0.063335456
0.03724889 -0.048197083 -0.0775372 -0.03328904 0.047205646 0.024462527 -0.06825058 0.042856004
-0.020468561 0.22647312 -0.040827855 -0.016122425 -0.04220148 0.0590749 0.054212973 0.064601146
0.078329295 -0.033834655 0.10620778 0.43276682 -0.06829086 0.054914594 0.05222896 0.013229057
-0.03520746 -0.0013502684 0.0266799 -0.01467651 -0.038811844 -0.04336654 0.059118226 0.030411778
0.062843144 -0.12484421 -0.07629585 -0.038480565 0.060025148 0.056974307 -0.019268965 0.041198805
0.0017192605 0.072491124 -0.16266136 -0.12332119 -0.57960296 0.008035115 0.07534367 0.005953048
0.07132736 0.05026191 -0.047446594 -0.042110126 -0.055525955 -0.035935994 -0.009180601 0.022445528
0.0071049244 0.0047533372 -0.05069234 0.009999634 -0.040531382 0.08233457 -0.07365888 -0.014211855

encoder.2.bias f4 [64]
00000000: 4cc8 40bd b063 0bbd 1681 2bbd 9d02 22bd
00000010: 38ea a13d 5cf3 ddbd 8726 eb3c ed90 233c
00000020: 316b 753d 35dc c0bc a43f 223d b553 253c
00000030: c444 d0bb a19d f33d 3d76 7e3c cd2a 6c3b
00000040: 0dd3 e639 5d07 7e3d 61bc 973d 1745 96bd
00000050: a47b a2bc fa2f 79bd 0d80 953d 1ed4 e2bc
00000060: 6451 f2bc 12c5 8b3d 8b0a c7b8 7b4a f73c
00000070: 9227 b6bc 1789 46bb 091e 6a3c 353c 0ebc
00000080: af44 45bd 7283 f4bd 4c60 003c ec3c c43d
00000090: e4df a43b 9920 9abd c87e f2bb 84fb 3ebd
000000a0: a1bc 2ebc f989 3cbd 4683 99bc cdc4 c8bc
000000b0: f2de a53d 2bb5 643c 1c4a adbd 69a6 823d
000000c0: 639e 7f3d 8a0e 9fbc 9954 89bd 398b 2c3d
000000d0: 4635 303d f799 b23c f473 53bd 85ea 8e3c
000000e0: d7aa cabc b38a 723c 6a3e a03c e473 9fba
000000f0: d08e 743c 316f 803d e822 26bd 44b5 b13c
-0.047066018 -0.034030616 -0.041871153 -0.039553273 0.07906002 -0.10837433 0.028704895 0.0099832835
0.05991668 -0.023542503 0.039611474 0.010090758 -0.0063558538 0.118953 0.01553112 0.0036036253
0.00044026264 0.06201874 0.07408977 -0.073373966 -0.019834347 -0.06083677 0.072998144 -0.027689036
-0.029579826 0.068246976 -9.491023e-05 0.030186882 -0.022235665 -0.0030294114 0.0142893875 -0.008681347
-0.048161205 -0.11939134 0.007835459 0.095819324 0.0050315727 -0.07525749 -0.0074003674 -0.046626583
-0.01066509 -0.04603002 -0.018739354 -0.024507904 0.08099164 0.013959209 -0.08461401 0.063793965
0.06240691 -0.019416112 -0.06705589 0.04212496 0.043019556 0.021801932 -0.051624253 0.017445812
-0.024739666 0.014803576 0.019561011 -0.0012165275 0.014926627 0.06271208 -0.040560633 0.02169288

decoder.0.weight f4 [64, 64, 3]
00000000: 07a6 03bd ce49 76bd cd43 7cbb c56c 85bd
00000010: 1f73 a539 5a55 093e 3677 ae3d 44b2 a43d
00000020: ab8f 9ebc b0b8 853d befe 583d c7f4 12bd
00000030: ca2f bdbd f325 3e3e 3460 c73d 19a2 86bd
00000040: a182 8dbc 3be0 9dbd a1ae 333d 5c79 7bbb
00000050: f046 49bd 1368 c23c 4909 4abc fcb3 bfbc
00000060: b1f8 5a3d 1b60 8ebd 087c 0cbe 1988 4f3d
00000070: b078 573d 8f41 d63b 63dd 3d3d d33c 203c
00000080: a2d6 bdbd 7875 02bd b195 15bd aadd 04be
00000090: 26c4 e93d 96c7 b93d fa7a ef3d c93f f73c
000000a0: 60c9 d33d 8afa 0a3e 5f44 873d d21e 32bd
000000b0: 9047 91bd de58 bb3c 3101 673d 4f46 95bd
000000c0: c0d6 9ebc aac3 e63d 580c aa3d b11a ccbd
000000d0: 5560 373d 67db b9bc 24da d3bc c089 8c3d
000000e0: a1be dc3d 6683 d2bc 9edd bdbc 257c 823d
000000f0: 8730 9fbc 1fee bb3d c392 9ebc 470d 473d
00000100: 22b6 8abd 1561 c3bd 585f 7ebd fa0c 8a3d
00000110: 6dc4 223d ad87 433d fc1e 973d 925f 1e3c
00000120: b3e1 e9bd b0ae 2ebd 257e 183d 239d 533d
00000130: 5bb9 eabc 3999 1d3d f377 1ebc 708e 50bd
00000140: ba45 a8bd bb69 68bd 00fd a63c ae45 d53c
00000150: e129 2f3e cc73 583d 291c 4d3d 5701 abbb
00000160: f24b 2bbe 90ac ae3d eaa3 2c3c c0d9 743d
00000170: 1290 d53c 557e acbd 6821 833d 5a15 03bd
00000180: ff8f 653c d342 ddbd 2602 093d a381 583e
00000190: 3e99 553d 508e a8bd 651e 503d 7f7a a93d
000001a0: 12c0 a3bd de86 873c 4568 063b 3de7 a03d
000001b0: ef6f 8d3d bf57 8dbd 8205 f3bc bc64 e93c
000001c0: e28f 433d 9966 293d 7d49 b7bd 664d 9bbc
000001d0: 7ada a7bd 4591 943d b6e6 ed3c 7276 debd
000001e0: 6cd3 703d fa5a 55bd 4210 233c 4b6c 4bbe
000001f0: f695 3d3d 4387 55bc a13d b03d b9dd cbbc
00000200: ce07 a33c d867 a2bb 8fbc 01bc 36c5 ac3d
00000210: 8744 c63d da1a 4f3d 0f5b 69bc 32d2 11bd
00000220: c596 343d fba0 3cbd a813 a53e 9218 153c
00000230: c988 6b3d c8a3 3e3c fa82 4b3c 61e5 aabc
00000240: ec23 a83d 12a1 ab3d 2410 85bc f5a7 8f3d
00000250: 8e06 07bc 6e64 973d 9a1f c73d 1a37 0bbd
00000260: 667a 27bc ebd9 1cbd ddd2 913d aaaa 233e
00000270: ef3e c4bc c8e8 363d 6255 023c 22ed 55bb
00000280: 4f6a 67bd 721a c03b 044c 9b3d 2394 8ebc
00000290: 5621 99bb a96b ddbc fa78 4f3a e6ee eebd
000002a0: 9ab0 743d 1dd3 bdbb 342b 6e3c 0241 493c
000002b0: c1c6 f1bc b655 0bbb dd1b dd3d f3eb 25bc
000002c0: f7ce 723c e7f0 923d 50a6 fdbc 243c cdbc
000002d0: ae83 f0bd 782a 56bb 7e1e 883d 021f 4fbc
000002e0: 568e af3d daab 46bd e245 ddbd d893 293c
000002f0: a944 febd 5776 8f3d 6b93 0d3e 9f26 19bd
00000300: ef03 3ebd 18ef 173d c42b 92bc 9b94 c6bb
00000310: 4e7f 1f3d 5dbc fc3d c4ea 1c3d 47ca f9bc
00000320: ae2b afba a25c 1e3e cc08 403d fb97 0dbe
00000330: 04a5 133e 24e9 1dbe 6ba5 823d 3890 90bd
00000340: b5bf 67bd f0f8 79bd bf4c da3d e43e f03d
00000350: f78f 7cbd e345 c3bd bb62 ac3b 42f6 333e
00000360: 9b5b b7bc 9727 393d f159 82bd 40ae b2bd
00000370: 58b9 cebc 405f c73d fe0d 383c cc9b 8bbc
00000380: 83fb ccbd 626c ddbd 3990 ecbc e95c 30be
00000390: 29ea 993c 210b 6abc 3f0e 82bd 3c9b 35bd
000003a0: c19a 623d 078b a43d b06c c53d 262c 58bd
000003b0: f1df d83c 47c1 80bd ef05 2abd 4fd6 43bd
000003c0: 8d85 e3bd 3258 81be f0c6 273e 9dc9 01be
000003d0: ff6c f0bb 56eb 223c 2168 f13c b67a 173e
000003e0: 739d 5cbb b8b4 ed3c 3567 013d c3d4 f2bc
000003f0: 47c0 fabd cef3 053e be9b dcbd 4ca4 283d
-0.032140758 -0.06012898 -0.003849256 -0.06514887 0.00031557024 0.13411465 0.085188314 0.08041814
-0.019355616 0.06529367 0.052977316 -0.03587797 -0.09237631 0.18569164 0.09735146 -0.065738864
-0.017274203 -0.07708784 0.04386771 -0.0038371896 -0.049139917 0.023731267 -0.012331315 -0.023401253
0.053459827 -0.069519244 -0.13719189 0.050666902 0.05260533 0.006538577 0.04635371 0.009780127
-0.092694536 -0.03185031 -0.03651971 -0.12975183 0.114143655 0.09071271 0.11693378 0.030181782
0.103411436 0.13572136 0.066048376 -0.043486424 -0.070937276 0.022869524 0.05639762 -0.07288801
-0.01938951 0.11267789 0.08303136 -0.099660285 0.044769604 -0.022687627 -0.025860853 0.06862211
0.10778547 -0.025697421 -0.023176964 0.06371335 -0.01943232 0.09176277 -0.01935709 0.048596647
-0.0677302 -0.09540001 -0.062102646 0.06740756 0.039738107 0.047736812 0.07378957 0.00966634
-0.11420002 -0.042647064 0.037229676 0.05166353 -0.028652837 0.038476203 -0.009672153 -0.05091709
-0.08216424 -0.056741457 0.020384312 0.026034202 0.1710582 0.052844808 0.050075684 -0.0052186656
-0.1672819 0.085290074 0.010537127 0.059777975 0.026069675 -0.084225334 0.06402856 -0.032002784
0.014011382 -0.10803761 0.033449315 0.21143202 0.052148096 -0.08230269 0.050810236 0.082753174
-0.07995619 0.016543802 0.0020508927 0.07856605 0.06906115 -0.06901502 -0.029665712 0.028490417
0.04774464 0.04135761 -0.08949564 -0.018957805 -0.08195968 0.072542705 0.029040676 -0.108624354
0.058795378 -0.052088715 0.009952607 -0.19865529 0.046285592 -0.013032737 0.08605505 -0.024885999
0.019901183 -0.004956227 -0.007918491 0.084360525 0.09681039 0.050562717 -0.0142429015 -0.03560085
0.044089098 -0.04605196 0.3224156 0.009100096 0.057503495 0.011635728 0.012421364 -0.02086133
0.082099766 0.08380331 -0.016243048 0.07014457 -0.008241309 0.07392202 0.097228244 -0.033988096
-0.010222053 -0.03829376 0.07120297 0.15983072 -0.02395579 0.04465559 0.007954927 -0.0032642563
-0.05649787 0.0058625275 0.07582858 -0.017404621 -0.0046731634 -0.027028875 0.000791445 -0.1166666
0.059738733 -0.005792989 0.014536668 0.0122835655 -0.029513719 -0.0021260804 0.1079633 -0.010127055
0.014819852 0.07174855 -0.030963093 -0.025053091 -0.11743866 -0.0032679122 0.06646441 -0.01264167
0.0857207 -0.048503734 -0.10804345 0.01035019 -0.1241544 0.070049934 0.13825767 -0.037390348
-0.04639047 0.037093252 -0.017843135 -0.0060601956 0.038939767 0.12340615 0.038309827 -0.030491961
-0.0013364458 0.15465024 0.04688339 -0.13827507 0.14418417 -0.15420967 0.06379207 -0.070587575
-0.05657931 -0.06102842 0.106591694 0.117307454 -0.061660733 -0.09534814 0.005260793 0.17574409
-0.022382548 0.04520377 -0.06364811 -0.08724642 -0.025234863 0.09734964 0.011233805 -0.017042063
-0.100089096 -0.10811688 -0.028877364 -0.17222942 0.018788414 -0.01428488 -0.063503735 -0.044337496
0.055323366 0.0803433 0.09639871 -0.05277648 0.026473971 -0.06286865 -0.041509565 -0.047811802
-0.11109457 -0.252626 0.16384482 -0.12674566 -0.007337212 0.009943804 0.029468598 0.14792904
-0.0033663183 0.029016837 0.031592567 -0.029642468 -0.12243705 0.13081285 -0.10771893 0.04117231

decoder.0.bias f4 [64]
00000000: a31a 143d 14f9 7d3d a269 b13d ca11 abbc
00000010: 1766 913d 0043 abbd 6a24 1d3c f9ba 353d
00000020: 5829 853d e506 0d3d 7ebc 2bbd d035 b53c
00000030: 77e6 bb3c 41d5 763d afc7 383d 494d 7f3d
00000040: e747 203c 6ef4 303d b59f 463d 8163 b13d
00000050: 7c94 50bd 815e 93bd b833 55bc 2b46 a53a
00000060: 5026 063e 9afe 8d3c f273 2cbd ce59 3a3d
00000070: 310f f0ba 470f d1bb ae7b 603c 8063 11bd
00000080: 02bc cdbd f3fc 6d3b cd78 3fbd e277 973d
00000090: c09b c13c 708e a63d 495d cabc 1510 ea3d
000000a0: 0ff1 ed3c 8747 613d 8b82 e2bc fa3c aabc
000000b0: e351 9b3d 05eb 90bc 2914 9c3d 741a 873d
000000c0: 1d00 043e e910 4ebd d6fe 43bc 1120 73bb
000000d0: 2e91 f1bc 42fc cdbb 1e5e 103d 5716 fb3b
000000e0: 8b78 4abd cc2e 633d cce0 8dbc 209d 2cbb
000000f0: 6249 bc3c c5b9 d73b 02c4 983d 74b6 ad3d
0.036158215 0.062005118 0.08662726 -0.020882506 0.0709955 -0.083623886 0.009591201 0.044367764
0.06502026 0.034430403 -0.041927807 0.022120386 0.022937043 0.06026197 0.045112308 0.062329564
0.009782768 0.043201856 0.048492152 0.08661557 -0.050922856 -0.071957596 -0.013012819 0.0012609413
0.13100553 0.017333318 -0.04210276 0.0454958 -0.0018315074 -0.006379995 0.013701363 -0.03549528
-0.10045625 0.00363141 -0.046746064 0.07395913 0.023633838 0.081326365 -0.024702685 0.11428849
0.02904561 0.054999854 -0.027650138 -0.020781029 0.07583978 -0.017690191 0.07621033 0.065968424
0.12890668 -0.050309096 -0.011962613 -0.003709797 -0.029488172 -0.006286175 0.035246007 0.007662575
-0.049431365 0.05546455 -0.017319106 -0.002633877 0.02298421 0.0065834248 0.074592605 0.08482066

decoder.2.weight f4 [1, 64, 3]
00000000: ffd6 97bd df95 9b3d d85b 9bbc 561b 93be
00000010: 0b6c 383d 3c58 0a3d 5341 e03d 2b92 afbd
00000020: 71d4 813d c7f4 c4bd c976 afbd d319 c2bd
00000030: ab22 783d d6b6 f8ba 1238 adbd d0b5 3d3a
00000040: 7889 7cbd 4070 af3d 530a edbd 4702 acbd
00000050: de22 c1bd 17a0 103d 8eaa 62bd 1363 54bf
00000060: 8e0e 9e3f 00fe 26bd c492 5a3d 21c9 79bc
00000070: 2674 34bd d071 f5bc be3c a9bd f4cc 823d
00000080: 2d07 993d d43a 42bd ea38 b73c d90c 013d
00000090: 328a 6cbd dafa 06bd 4678 4cbd df62 0a3d
000000a0: 236a 0dbe 5c12 333e 2d66 503c 0108 823d
000000b0: 793b 273c 6b4d 543d 66ea 8dbd b53a da3c
000000c0: 1e6b 5fbd 3a30 04be d5e7 f0be fbe8 babd
000000d0: 9d7a 683a 6492 a13d ffd0 bebe c69e 72be
000000e0: e698 44be b2f5 043c 19f9 ddbd 2879 c23d
000000f0: 4a74 39be a8d3 8dbe 11b6 dfba a1fc debd
00000100: 0f70 63be d40a 3bbd f498 d03d c91e bd3d
00000110: 1b34 d3bd aab3 773e 10c5 51bc 7332 2fbd
00000120: db5e 64bb 3261 ce3d 3041 b7bd 19aa fdbc
00000130: 579a 943d 438a 153f 2183 2e3d a380 b23c
00000140: 826f e4bd 7ac6 d03d 4f3a fdbd a80c c23d
00000150: 030d eabd 1844 f23d d3b9 713d f427 f23e
00000160: f205 e7bb 884a 0fbd d22a ee3d 6c4f dd3d
00000170: 6603 a1bd 3087 d93d 1473 a9bd 70a0 34bd
00000180: 4764 213c 84b7 1cbd cf37 ec3f 3cfb ffbe
00000190: 0570 b3bd e65b 683d 8766 5fbc 850e 8ebc
000001a0: a38a 7abd a942 533d 3b42 7e3d fff5 7ebd
000001b0: 357d b1bc 7733 8b3d 6e75 723c e5f6 a3bd
000001c0: 8d04 033d c9fe f2be 46b0 88be 4c3b 333d
000001d0: 7557 e6bc ecde f1bd 845c 023e c29a 84bd
000001e0: e190 de3c 99c6 8fbb 51a9 6fbd 78e0 833d
000001f0: caf2 ca3d 31ef af3c e203 82bd 77c3 2a3e
00000200: ff07 ed3d b95f babd fe37 08be b158 8bbe
00000210: 95a4 1dbf e6a9 643d 76d1 88bd 6524 da3d
00000220: e2e7 8dbd 93f5 55bd 9e2b be3d 538b c23d
00000230: f88e c83d c337 f73d 57d7 c33d 16e9 0d3d
00000240: ad99 b2bc b0d7 9a3d 8a86 a2bd deb0 11be
00000250: f632 f2bd 7569 82bc ce59 67bd 5154 e939
00000260: dd7e d03d 0796 29bc d564 2dbd aec8 85bc
00000270: 0b87 e6bc fdb5 133e 687e 87bd f330 3dbd
00000280: 79a1 90bd c56b c93d f9c2 423d acff b1bc
00000290: 54e3 1a3c 3724 f9bd af0c 37be 5dc2 4f3c
000002a0: 31ce c4bc 1547 5f3d 8650 d13c a9ae ab3d
000002b0: 926d 973c 974b b6bc 93be 893c 3611 f6bf
000002c0: 0eb8 a2ba fce8 1f3d 691c 3abf 577a 17bd
000002d0: a9e8 98bd becf 053e a2ad 1b3d bb71 8abd
000002e0: 011f 10bd ad97 9fbc 7b94 453d b532 053d
000002f0: dfe3 a4bd 7814 5d3c f4ee 993d c191 223d
-0.07414054 0.07596945 -0.018964693 -0.28731793 0.045024913 0.033775553 0.109499596 -0.08572801
0.06339348 -0.09617 -0.08567578 -0.09477582 0.060579937 -0.0018975388 -0.0845796 0.000723687
-0.061654538 0.08566332 -0.11574235 -0.08398872 -0.094304785 0.035308924 -0.055338435 -0.82963675
1.2348192 -0.040769577 0.053362623 -0.015245707 -0.04405608 -0.029961497 -0.08263539 0.06386748
0.07472072 -0.047419384 0.022366006 0.031506393 -0.05774898 -0.032954074 -0.04991939 0.033785697
-0.13810019 0.17487472 0.012719673 0.06349183 0.0102070505 0.051831644 -0.069294736 0.026639322
-0.054545514 -0.12909022 -0.47051874 -0.09126469 0.00088683685 0.0788925 -0.37268826 -0.2369338
-0.19198951 0.008115219 -0.10838527 0.09495765 -0.18110767 -0.27700543 -0.001706781 -0.10888029
-0.22210716 -0.045664623 0.101854235 0.092343874 -0.10312673 0.2418963 -0.012803331 -0.04277272
-0.0034846577 0.10077132 -0.089479804 -0.030964898 0.072560005 0.58414096 0.042605523 0.021789854
-0.11154081 0.101941064 -0.12364637 0.0947507 -0.11428263 0.11829394 0.059015106 0.47296107
-0.0070502693 -0.034983188 0.11629261 0.10806164 -0.07861976 0.10621488 -0.082739025 -0.044098318
0.009850568 -0.03826095 1.8454531 -0.49996364 -0.087616004 0.056728266 -0.013635284 -0.017340908
-0.06116737 0.051577244 0.06207488 -0.06224632 -0.021666149 0.067969255 0.014798505 -0.08006076
0.03198676 -0.4746001 -0.26696986 0.04375772 -0.028117875 -0.11810097 0.12730604 -0.0647483
0.027168693 -0.0043876884 -0.058511082 0.064392984 0.099095896 0.02147636 -0.06348397 0.16676126
0.11573791 -0.09100289 -0.1330261 -0.27216104 -0.6157926 0.05582609 -0.066805765 0.10651473
-0.06928994 -0.05223615 0.09285663 0.0949923 0.09792894 0.120711826 0.09562557 0.034646116
-0.021801794 0.075606704 -0.079358175 -0.14227626 -0.11826126 -0.015919426 -0.05648213 0.00044504044
0.10180447 -0.010350711 -0.04233249 -0.016331043 -0.028140565 0.14424892 -0.06615907 -0.04618926
-0.070620485 0.098350085 0.04754922 -0.02172836 0.009453613 -0.121651106 -0.17875932 0.012680617
-0.024024101 0.05451115 0.025551092 0.08382923 0.018484864 -0.02225284 0.016814506 -1.9224002
-0.0012414472 0.03904055 -0.726996 -0.036981907 -0.074662514 0.13067529 0.038007386 -0.067599736
-0.035185818 -0.019481504 0.048237305 0.03251906 -0.080512755 0.01349365 0.0751628 0.039689783
